student_performance_maml.pth (torch, 3762 bytes, 5 tensors)

module.fc1.weight f4 [16, 4]
0	0x3e93eaa1	0.28889945
1	0x3efde2cf	0.49587104
2	0xbd00e61f	-0.03146946
3	0x3e922b6f	0.28548762
4	0xbf093392	-0.53594315
5	0x3ef305a6	0.47465247
6	0xbcd9d11e	-0.026588973
7	0x3deed617	0.11661928
8	0xbed70264	-0.4199401
9	0x3d6b62f0	0.0574674
10	0xbe15a4f4	-0.14613706
11	0xbd80c328	-0.06287223
12	0x3eea23f4	0.45730555
13	0x3ef12c72	0.47104222
14	0xbc62959b	-0.013829614
15	0xbe6deb14	-0.23234206
16	0xbe42d44c	-0.19026297
17	0xbe9ea53a	-0.30985433
18	0x3e067c70	0.13133407
19	0x3e8c0900	0.27350616
20	0xbd93e9a0	-0.07222295
21	0xbead7d7e	-0.33884805
22	0x3e994c72	0.29941136
23	0xbe9750ee	-0.29553932
24	0xbe8e2669	-0.2776368
25	0x3e2adbd8	0.16685426
26	0x3ef2b3b0	0.47402716
27	0x3e9688e5	0.29401317
28	0x3e871e3b	0.26390252
29	0x3e8e846e	0.2783541
30	0xbec9e483	-0.39432153
31	0xbefcc641	-0.49370006
32	0xbede4ae3	-0.4341651
33	0x3e2ff2d5	0.17182477
34	0x3ef23265	0.47304073
35	0x3dbb7bef	0.09154498
36	0xbecc5cbc	-0.399145
37	0x3e41d46c	0.18928689
38	0xbec349ae	-0.3814215
39	0xbe8ce478	-0.27518058
40	0x3ed33cf5	0.41257444
41	0xbe2a9fc7	-0.16662513
42	0xbdce5052	-0.10073914
43	0xbd79985a	-0.06093631
44	0xbeb13341	-0.34609416
45	0x3ee93bac	0.4555334
46	0xbf056583	-0.5210802
47	0x3e22072c	0.15823048
48	0xbdb235c0	-0.08701658
49	0xbe4993ca	-0.19685283
50	0x3ed51875	0.41620222
51	0x3e6abba0	0.22923136
52	0xbef189cc	-0.47175443
53	0x3e84675e	0.25860113
54	0xbe3ed2c8	-0.18635094
55	0xbd299310	-0.041400015
56	0x3e3f06e0	0.18654966
57	0x3d904be3	0.07045724
58	0x3eb491e7	0.35267565
59	0xbea5572b	-0.32293066
60	0xbd3da1e0	-0.046296954
61	0xbdbbb9d8	-0.09166306
62	0x3e5ae9c8	0.21378243
63	0xbe0caa60	-0.13736868

module.fc1.bias f4 [16]
0	0x3bf8fdd6	0.007598619
1	0xbd8a7013	-0.06759658
2	0xbefec172	-0.49756962
3	0x3e0c7fc1	0.13720609
4	0xbe20538c	-0.1565687
5	0x3ef6a7f0	0.48175
6	0x3e339185	0.1753598
7	0xbd3af582	-0.04564429
8	0xbe8187a0	-0.25298786
9	0x3ed501c4	0.4160291
10	0xbc862cf1	-0.016378852
11	0x3e594d9c	0.21221012
12	0x3f05dc11	0.5228892
13	0xbe2054e4	-0.15657383
14	0xbf371972	-0.715232
15	0x3d849b40	0.06474924

module.fc2.weight f4 [8, 16]
0	0x3e07b025	0.13250788
1	0xbd1ac433	-0.037784766
2	0x3e2d4c30	0.16923594
3	0x3e8606ca	0.26177055
4	0x3e330fca	0.17486492
5	0x3e6c97a4	0.23104721
6	0xbe2491ba	-0.16071215
7	0x3de7543a	0.11295362
8	0xbeaa887d	-0.33307257
9	0x3e6ac0ba	0.22925082
10	0x3e51ed35	0.20500644
11	0xbcec0c28	-0.02881439
12	0x3c653a0b	0.013990889
13	0xbe07c60c	-0.13259143
14	0x3e0b6575	0.13612922
15	0xbd354410	-0.044254363
16	0x3e723e23	0.23656516
17	0x3db01f98	0.08599776
18	0xbd1c5dd0	-0.038175404
19	0xbe3f8ca2	-0.18705991
20	0xbd7dc2b8	-0.061953276
21	0x3e489902	0.19589618
22	0x3e5939c1	0.21213438
23	0x3e02bc73	0.127672
24	0x3d27884a	0.04090146
25	0x3e1f3750	0.15548444
26	0x3b64fade	0.0034939568
27	0xbd1923d2	-0.037387677
28	0xbe704343	-0.23463158
29	0xbcba97b0	-0.022777408
30	0x3ed0e827	0.40802118
31	0xbe373010	-0.17889428
32	0x3e4fad5c	0.20280975
33	0x3e714298	0.2356056
34	0x3e4fab8e	0.20280287
35	0x3d9c69eb	0.0763739
36	0xbe55813c	-0.2085008
37	0xbe59b948	-0.21262085
38	0xbd556795	-0.052100737
39	0xbe03967f	-0.12850378
40	0x3da9abe3	0.08284738
41	0xbd209cb0	-0.03921193
42	0xbe165014	-0.14678985
43	0x3d5faec7	0.05461004
44	0x3e2229fc	0.15836328
45	0xbdcf36f0	-0.101179
46	0xbef73707	-0.4828417
47	0x3d530388	0.05151704
48	0xbd59c658	-0.05316767
49	0x3e500e0a	0.20317855
50	0x3e3fff16	0.18749651
51	0xbcaa5810	-0.020793945
52	0x3de72554	0.11286417
53	0xbd9cd8e0	-0.07658553
54	0xbe4ffb06	-0.20310602
55	0x3c57a420	0.013161689
56	0x3e567488	0.2094289
57	0x3e5fb406	0.21846017
58	0x3e2616a6	0.16219577
59	0x3e0f6650	0.14003873
60	0x3c205940	0.009786904
61	0x3e6cb41e	0.23115584
62	0x3e375522	0.1790357
63	0xbb36cf80	-0.0027894676
64	0x3e7a91ad	0.24469633
65	0xbe4ae93c	-0.19815534
66	0x3e0a744e	0.13520929
67	0x3e50eb74	0.20402318
68	0xbd825588	-0.0636397
69	0x3d87ae60	0.06625056
70	0x3e632a1b	0.2218403
71	0x3d6d85c5	0.0579889
72	0xbd8e26d6	-0.06941001
73	0x3e0b695a	0.13614407
74	0x3d94ad68	0.07259637
75	0xbe2b43d5	-0.16725095
76	0xbd2bc1bc	-0.041932806
77	0xbe2f4094	-0.17114478
78	0x3bf4c9a5	0.007470327
79	0x3e1f08d0	0.15530705
80	0x3d7ad4b3	0.061238002
81	0x3e4bd2ab	0.19904582
82	0xbc6050a0	-0.0136910975
83	0xbe304e5b	-0.1721739
84	0x3dc51f84	0.09625152
85	0xbe112cb6	-0.14177212
86	0x3d14c36e	0.03631919
87	0xbc9ffc20	-0.019529402
88	0x3e5b5338	0.21418464
89	0x3e31ee3c	0.17376035
90	0xbd913f8c	-0.07092199
91	0xbc902f73	-0.01760075
92	0xbdad0732	-0.08448638
93	0xbd592550	-0.0530141
94	0xbe0a20a2	-0.13489011
95	0x3dd8f130	0.10592878
96	0x3b8f7f80	0.004379213
97	0xbddfe79c	-0.10932848
98	0xbc69b5e0	-0.014264554
99	0xbd1f83e0	-0.038944125
100	0xbdbd8a68	-0.092549145
101	0xbdb3e5a4	-0.08784035
102	0xbdf3d9f4	-0.11906806
103	0xbdea1b74	-0.114310175
104	0xbe60455e	-0.21901461
105	0xbde58094	-0.11206165
106	0x3e0cc4d0	0.13746953
107	0xbd213f88	-0.03936723
108	0xbe62d998	-0.22153318
109	0xbdd0f414	-0.10202804
110	0x3dc74c74	0.09731379
111	0x3e49c8a0	0.19705439
112	0x3c81a197	0.015824122
113	0x3e9bd706	0.30437487
114	0x3e27b090	0.16375947
115	0x3dfeaa2e	0.12434803
116	0x3e6c729a	0.23090592
117	0xbe4e9e8c	-0.20177668
118	0x3e450b04	0.19242483
119	0x3bbaacb8	0.005696859
120	0x3e2ec901	0.17068864
121	0x3e343c04	0.17601019
122	0x3d1cef7e	0.038314335
123	0x3dea0a6b	0.11427768
124	0x3e129ecf	0.14318393
125	0x3e0552b0	0.13019824
126	0xbea83f7a	-0.3286093
127	0x3e7a79a0	0.24460459

module.fc2.bias f4 [8]
0	0xbe6b06e8	-0.22951853
1	0xbe8ae16b	-0.27125105
2	0xbda5552f	-0.08072888
3	0xbe643892	-0.22287205
4	0x3c866e45	0.016410002
5	0xbe7f4163	-0.24927287
6	0xbe6afc32	-0.22947767
7	0x3db0f48c	0.086403936

module.fc3.weight f4 [1, 8]
0	0x3e998e7b	0.29991516
1	0x3eb558fa	0.35419446
2	0xbe877e5f	-0.264636
3	0x3e9ed9a6	0.31025428
4	0x3d0c30e0	0.0342263
5	0x3e9ed44a	0.3102134
6	0xbe83b2e7	-0.2572243
7	0xbe32b002	-0.17449954
